Samples~/PushBlock/NNModels/PushBlock.onnx (onnx, 346866 bytes, 9 tensors)

action_model._discrete_distribution.branches.0.bias f4 [3]
-0.000809124 -0.02801354 0.02711579
00000000: 641b 54ba a77c e5bc ef21 de3c

action_model._discrete_distribution.branches.0.weight f4 [3, 256]
-0.042352285 0.052254286 -0.079371706 -0.0052597187 -0.16897276 -0.061436877 -0.10632868 -0.061511494
-0.093219 -0.049986277 -0.07140183 0.05581812 0.041668247 -0.06839767 -0.079084195 -0.03496994
0.06910473 -0.07989562 -0.04799639 0.004330019 -0.06451521 -0.0768238 -0.039844766 -0.13566217
0.09611566 0.025385337 -0.080011256 0.09326545 -0.012176789 -0.046035055 0.088710085 -0.086831845
-0.08634737 -0.011051608 -0.096099466 -0.13606963 -0.009423797 -0.04321981 -0.1405927 -0.08061107
0.056431916 -0.08007396 0.08286978 0.09343775 -0.063381776 -0.06060365 -0.108325906 0.074595235
-0.07392404 -0.079985365 -0.0109251 0.0748734 0.05970182 0.032832675 0.08854295 0.048367433
-0.048318002 -0.008382305 -0.10254502 -0.048105247 -0.048772078 0.06316383 0.005700186 0.028300542
0.08841173 0.057161443 -0.008439831 -0.14998516 -0.006252004 -0.104930215 -0.082951725 -0.10365348
-0.05334 -0.02344509 0.09931417 0.11417877 0.06582507 -0.07023393 -0.0036392838 -0.10446215
-0.0111346 -0.13210835 -0.004500003 0.034785658 0.056101557 0.047648188 -0.04706657 0.02450075
-0.088553965 -0.0690209 0.04013771 -0.062442355 0.11585629 -0.067616485 -0.009087905 -0.06868645
0.059357584 -0.018494906 -0.096134774 -0.12702374 -0.028401535 -0.061181333 -0.13815796 0.07276012
-0.044768423 -0.021461852 -0.028796908 0.036735803 -0.08659068 -0.040327657 -0.030763036 -0.035490986
0.029713323 -0.097723976 0.059022423 0.0588552 0.0590084 -0.14753926 -0.012634246 -0.0667162
0.04946666 -0.06532664 0.04603836 -0.09058597 0.057654332 0.08050197 -0.058445282 -0.053095322
-0.09792096 -0.09076128 -0.01914927 0.08702303 -0.059673738 -0.100217186 -0.0742591 -0.011222517
0.09343969 0.08449544 0.027246302 0.05465539 -0.13061316 0.01371207 -0.05986981 -0.0619655
0.06488824 -0.0070839515 0.062076464 -0.095695406 -0.04185632 -0.071257 -0.011495837 -0.10352769
-0.053996295 -0.10037828 -0.072955996 -0.047188535 0.04272831 0.06602825 -0.10842547 -0.13888569
-0.018007286 0.058007725 -0.08765639 0.07121334 0.05030958 -0.058371242 -0.11757756 0.012529134
-0.059260685 -0.12884073 -0.009225481 -0.07728948 0.024775745 -0.08997383 -0.04750597 -0.017952412
-0.075234406 -0.057578493 0.039060123 -0.043573238 -0.026070697 -0.046901993 0.050160684 -0.10335314
-0.082388565 -0.07394192 -0.11798602 -0.025666194 -0.105305865 0.036863796 0.009030346 -0.049981907
-0.0037008864 -0.030204184 -0.060881168 -0.0996445 -0.039428256 -0.059660424 -0.08922774 -0.073863305
-0.024302846 -0.106322154 -0.096111365 -0.11533766 -0.110980965 -0.044227134 -0.10716964 -0.03710519
0.040029664 0.03129207 -0.02701175 -0.068081684 0.011414322 0.02462012 -0.0884805 -0.03960353
-0.07701827 0.069085956 0.080888025 -0.087662116 0.03632141 -0.13787463 0.011358697 -0.01894583
-0.021400955 -0.073525965 0.09385477 -0.040604025 0.0762018 0.0657148 0.0051206658 0.09864119
-0.049485765 -0.0635396 -0.033995192 -0.09407125 -0.040885266 0.09889677 -0.058110088 0.055816427
-0.09343442 0.010860019 -0.12910728 -0.055440273 0.06350644 -0.017761234 0.025756132 -0.015597894
-0.024665207 -0.114357516 -0.07151619 -0.17249373 0.10133545 -0.03320554 0.06681116 0.012601019
00000000: 9779 2dbd 9708 563d a28d a2bd b859 acbb
00000010: 3207 2dbe 3ca5 7bbd dac2 d9bd 7af3 7bbd
00000020: 9ae9 bebd 69be 4cbd 1f3b 92bd 8aa1 643d
00000030: 53ac 2a3d 1414 8cbd e5f6 a1bd a43c 0fbd
00000040: c886 8d3d 51a0 a3bd dd97 44bd d5e2 8d3b
00000050: 8d20 84bd cc55 9dbd 4434 23bd 06eb 0abe
00000060: 4ad8 c43d e9f4 cf3c f1dc a3bd f501 bf3d
00000070: 2881 47bc 418f 3cbd a2ad b53d e5d4 b1bd
00000080: e4d6 b0bd ce11 35bc cccf c4bd d655 0bbe
00000090: 4566 1abc 4107 31bd 88f7 0fbe 6b17 a5bd
000000a0: 2725 673d d1fd a3bd a2b7 a93d 4b5c bf3d
000000b0: 4ece 81bd 883b 78bd f9d9 ddbd 63c5 983d
000000c0: 7d65 97bd 5ecf a3bd 31ff 32bc 3a57 993d
000000d0: e589 743d 8e7b 063d 0256 b53d ee1c 463d
000000e0: 19e9 45bd ef55 09bc 2003 d2bd 020a 45bd
000000f0: 3bc5 47bd 0a5c 813d a0c8 ba3b 8ad6 e73c
00000100: 3611 b53d 1e22 6a3d 3847 0abc b695 19be
00000110: 9cdd ccbb a7e5 d6bd 98e2 a9bd 4748 d4bd
00000120: 0b7b 5abd eb0f c0bc 3a65 cb3d 8fd6 e93d
00000130: 4bcf 863d cfd6 8fbd 0d81 6ebb 40f0 d5bd
00000140: e66d 36bc 6947 07be c374 93bb 687b 0e3d
00000150: bfca 653d bf2a 433d e0c8 40bd ccb5 c83c
00000160: c85b b5bd d45a 8dbd 7067 243d 8ec3 7fbd
00000170: 1046 ed3d 837a 8abd 70e5 14bc 7bab 8cbd
00000180: f020 733d a182 97bc 4fe2 c4bd 8312 02be
00000190: 56aa e8bc 4799 7abd 4879 0dbe 4203 953d
000001a0: 185f 37bd c4d0 afbc 7ee7 ebbc 4878 163d
000001b0: 7456 b1bd 9d2e 25bd c302 fcbc ff5e 11bd
000001c0: 5b69 f33c 8223 c8bd 7fc1 713d 2612 713d
000001d0: cbb2 713d 8814 17be deff 4ebc 81a2 88bd
000001e0: 8d9d 4a3d f9c9 85bd b892 3c3d 2385 b9bd
000001f0: f326 6c3d 38de a43d 5264 6fbd 7b7a 59bd
00000200: c98a c8bd 0de1 b9bd eede 9cbc 2139 b23d
00000210: 736c 74bd ab3e cdbd 2815 98bd a6de 37bc
00000220: 4f5d bf3d f20b ad3d a333 df3c 55de 5f3d
00000230: 75bf 05be 97a8 603c 0c3a 75bd 89cf 7dbd
00000240: 20e4 843d 7e20 e8bb e443 7e3d f4fb c3bd
00000250: 8871 2bbd 31ef 91bd 0959 3cbc 5306 d4bd
00000260: 382b 5dbd 2193 cdbd f469 95bd c448 41bd
00000270: e103 2f3d d239 873d 2c0e debd 0d38 0ebe
00000280: 0484 93bc 8299 6d3d 3285 b3bd 4dd8 913d
00000290: 6b11 4e3d af16 6fbd 81cc f0bd ff46 4d3c
000002a0: 55bb 72bd d3ee 03be 7926 17bc f249 9ebd
000002b0: 81f6 ca3c 3344 b8bd 9f95 42bd f010 93bc
000002c0: 7f14 9abd 6dd7 6bbd 82fd 1f3d da79 32bd
000002d0: 3792 d5bc 4e1c 40bd 4a75 4d3d d0aa d3bd
000002e0: 56bb a8bd dd6e 97bd a8a2 f1bd e941 d2bc
000002f0: 9aaa d7bd 7efe 163d 04f4 133c d4b9 4cbd
00000300: 928a 72bb c46e f7bc 885e 79bd 6a12 ccbd
00000310: 867f 21bd 7d5e 74bd 09bd b6bd a545 97bd
00000320: c316 c7bc 6ebf d9bd 09d6 c4bd 2736 ecbd
00000330: fd49 e3bd 8327 35bd c27b dbbd 9dfb 17bd
00000340: 25f6 233d 1d2c 003d bf47 ddbc 696e 8bbd
00000350: 2303 3b3c 22b0 c93c 4435 b5bd 5037 22bd
00000360: c1bb 9dbd f07c 8d3d 9fa8 a53d 3288 b3bd
00000370: c2c5 143d 022f 0dbe d419 3a3c 4934 9bbc
00000380: 0e51 afbc c894 96bd ee36 c03d 6850 26bd
00000390: b00f 9c3d 7b95 863d 42cb a73b 6404 ca3d
000003a0: 96b1 4abd 0d21 82bd 8b3e 0bbd 6da8 c0bd
000003b0: 4f77 27bd 648a ca3d d804 6ebd c49f 643d
000003c0: 8c5a bfbd 39ee 313c b334 04be 5715 63bd
000003d0: aa0f 823d 0280 91bc 86fe d23c 4f8e 7fbc
000003e0: b00e cabc 4634 eabd 1577 92bd 32a2 30be
000003f0: f688 cf3d 8802 08bd 4ad4 883d 8174 4e3c

action_model._discrete_distribution.branches.1.bias f4 [3]
0.0310826 -0.0038948376 -0.027790815
00000000: f0a0 fe3c 8840 7fbb 90a9 e3bc

action_model._discrete_distribution.branches.1.weight f4 [3, 256]
-0.09226694 0.07048832 -0.025487896 -0.08914685 -0.09411476 -0.10907763 -0.10062777 -0.104702465
-0.064815335 -0.13098936 0.004417281 -0.0069010104 0.011886614 0.06870321 -0.0069088577 0.008738486
0.09715451 0.07293906 0.06994844 -0.039921653 0.02267163 -0.14100651 0.010811246 0.051027644
0.13522512 0.120691575 0.044113502 0.01374736 0.08425247 0.03763437 0.07510957 -0.15477002
-0.11233097 0.047248084 0.016022684 -0.03567737 -0.049825855 0.019002084 -0.11935621 -0.14812678
0.07409699 -0.104594916 0.008650517 0.09096741 -0.0015687358 -0.00875206 -0.11702814 -0.07255727
-0.032236 -0.075227745 -0.040956907 -0.030288508 -0.02785729 -0.05564504 -0.009663909 0.038026065
0.07107199 -0.058091924 -0.12021569 -0.027937781 0.03689403 0.11697971 -0.037279613 0.05742031
-0.019273778 -0.03304147 0.056593083 -0.084174864 0.059485424 -0.13964194 -0.047638256 0.054971397
-0.0593508 0.03623693 0.04202865 0.12943205 0.0072574206 -0.10272978 -0.11032853 0.011743317
-0.06632473 -0.023848657 -0.008993885 0.07138325 0.068915874 0.10663156 -0.028569112 0.0030250433
-0.035793576 0.05978327 -0.039019454 -0.08776069 0.037989367 0.06403407 -0.037280135 -0.14216037
0.0504216 0.11663948 0.039068706 -0.018117215 0.009575306 -0.018799955 -0.10977273 0.078243956
-0.0027484286 0.055466488 0.102593176 -0.05177108 -0.08180056 0.025151012 0.0016364115 0.07619389
-0.01761585 0.034226 0.060746435 0.014731423 0.06014477 -0.0719348 0.0065050176 0.072117805
-0.0434771 -0.00019201607 -0.03834404 0.067888856 -0.04514286 0.043171033 -0.10883597 0.023121625
-0.012732443 0.039167613 -0.060007542 0.01563149 0.049513664 -0.007243386 0.057919033 -0.032686047
-0.062152807 0.0014014107 -0.06697531 -0.005676215 0.031523027 -0.01930537 -0.11072043 0.018030839
0.05086566 -0.096795715 0.043360576 -0.122331664 0.01638538 0.019721806 -0.09814183 -0.03693044
-0.025919955 0.054727554 -0.04971793 -0.1416456 -0.07988613 0.03880174 0.06882983 -0.07873703
-0.08371726 0.105498195 -0.075668916 0.066446126 0.14911416 -0.024875803 0.034277935 -0.023811603
-0.1220747 -0.14719576 0.019782763 0.04304359 -0.12508196 -0.075534776 0.0023181601 -0.10181692
0.047638226 0.051636986 0.07915256 0.08712998 -0.058839608 0.047460407 0.08624031 -0.13109663
-0.020587945 -0.08890773 -0.11344301 0.013977313 -0.04011435 -0.06698341 0.08439559 -0.011460634
-0.06662999 -0.05412089 -0.11197377 -0.02957935 0.043982033 -0.04512343 -0.12901226 -0.079316325
0.09317071 -0.14831753 -0.095019095 0.0339419 0.012816114 -0.05915131 -0.13617106 -0.068537556
-0.03537154 0.076486506 -0.061348807 -0.08229153 -0.087428495 -0.057592712 -0.06299954 -0.11587571
-0.12662558 0.057916876 0.022047399 -0.08277341 0.09118998 -0.08480964 0.07655798 0.020078195
-0.05033664 -0.10685553 0.0019969644 -0.022443395 0.024501385 0.019643713 -0.0589388 0.04456679
-0.01981986 0.022559872 0.050856054 0.012038147 0.022846656 -0.0054612528 0.07309207 0.044141196
-0.10836418 0.14112641 -0.11151848 0.041694175 0.045501653 -0.073696025 -0.011014404 0.007041824
-0.005288106 -0.05445501 -0.01755085 -0.07798036 0.051406268 0.051683553 0.046455447 -0.039271932
00000000: 73f6 bcbd 2e5c 903d fecb d0bc a092 b6bd
00000010: 3dbf c0bd 1864 dfbd ef15 cebd 3f6e d6bd
00000020: e7bd 84bd 1322 06be d7be 903b df21 e2bb
00000030: 13c0 423c 45b4 8c3d b363 e2bb de2b 0f3c
00000040: f2f8 c63d 1361 953d 2141 8f3d e384 23bd
00000050: dbb9 b93c 0364 10be a721 313c 5d02 513d
00000060: 7478 0a3e 252d f73d 5cb0 343d 9b3c 613c
00000070: 8f8c ac3d 7f26 1a3d 0cd3 993d 087c 1ebe
00000080: c80d e6bd 3587 413d 0142 833c 6f22 12bd
00000090: 3216 4cbd 42aa 9b3c 0771 f4bd 8cae 17be
000000a0: 2ac0 973d dc35 d6bd e6ba 0d3c 1f4d ba3d
000000b0: 0a9e cdba cd64 0fbc 73ac efbd e898 94bd
000000c0: e509 04bd 0111 9abd 6ec2 27bd 9b1f f8bc
000000d0: f934 e4bc 0eec 63bd 5f55 1ebc 38c1 1b3d
000000e0: 318e 913d ccf1 6dbd a533 f6bd c6dd e4bc
000000f0: 321e 173d 0f93 ef3d 82b2 18bd 8f31 6b3d
00000100: 0be4 9dbc 7e56 07bd 26ce 673d df63 acbd
00000110: fda6 733d 4cfe 0ebe 5520 43bd b029 613d
00000120: d319 73bd 2d6d 143d 3c26 2c3d d689 043e
00000130: a8cf ed3b fe63 d2bd edf3 e1bd 0b67 403c
00000140: 43d5 87bd 425e c3bc 165b 13bc 6231 923d
00000150: c423 8d3d a661 da3d c509 eabc ce3f 463b
00000160: 499c 12bd 4ddf 743d ddd2 1fbd e0bb b3bd
00000170: bd9a 1b3d 4b24 833d 0eb3 18bd 7d92 11be
00000180: e186 4e3d aee0 ee3d 8206 203d 8e6a 94bc
00000190: bfe1 1c3c 5d02 9abc 86d0 e0bd 5e3e a03d
000001a0: fb1e 34bb d430 633d 5f1c d23d e90d 54bd
000001b0: 0d87 a7bd 7f09 ce3c dc7c d63a 8b0b 9c3d
000001c0: 1d4f 90bc 9030 0c3d 41d1 783d 115c 713c
000001d0: 5d5a 763d 8d52 93bd 0b28 d53b 80b2 933d
000001e0: 0b15 32bd ec57 49b9 a40e 1dbd 5009 8b3d
000001f0: b8e7 38bd 1cd4 303d 65e5 debd 9069 bd3c
00000200: bd9b 50bc 386e 203d 78ca 75bd 9c0d 803c
00000210: d7ce 4a3d ed59 edbb 823c 6d3d cee1 05bd
00000220: f193 7ebd 8aaf b73a 5a2a 89bd 8bff b9bb
00000230: 4a1e 013d 4c26 9ebc 65c1 e2bd 69b5 933c
00000240: 8358 503d d53c c6bd dc9a 313d 0689 fabd
00000250: a23a 863c a08f a13c 95fe c8bd 6044 17bd
00000260: 1656 d4bc 002a 603d 07a5 4bbd 8b0b 11be
00000270: 579b a3bd 93ee 1e3d a7f6 8c3d e140 a1bd
00000280: f473 abbd 700f d83d 4ef8 9abd e814 883d
00000290: 62b1 183e 57c8 cbbc 0567 0c3d 8d10 c3bc
000002a0: 4d02 fabd 7cba 16be 760f a23c 7a4e 303d
000002b0: 7c15 00be fab1 9abd 46ec 173b 6485 d0bd
000002c0: 4d20 433d 4e81 533d bd1a a23d 3471 b23d
000002d0: cd01 71bd d865 423d c29e b03d 323e 06be
000002e0: 0da8 a8bc 4215 b6bd cf54 e8bd 1a01 653c
000002f0: f24e 24bd 992e 89bd 98d7 ac3d 62c5 3bbc
00000300: 4e75 88bd dead 5dbd 8152 e5bd 6550 f2bc
00000310: 8126 343d 59d3 38bd ca1b 04be 9970 a2bd
00000320: 49d0 be3d 8de0 17be 5f99 c2bd a906 0b3d
00000330: aefa 513c a548 72bd 6d70 0bbe 6b5d 8cbd
00000340: bfe1 10bd f5a4 9c3d e348 7bbd 7688 a8bd
00000350: b60d b3bd 56e6 6bbd e705 81bd 3f50 edbd
00000360: 23aa 01be 3f3a 6d3d bf9c b43c 1b85 a9bd
00000370: d0c1 ba3d adb0 adbd 6eca 9c3d 077b a43c
00000380: cb2d 4ebd 12d7 dabd 81df 023b 36db b7bc
00000390: 21b7 c83c daeb a03c d069 71bd ab8b 363d
000003a0: 425d a2bc 7bcf b83c 704e 503d a63b 453c
000003b0: e928 bb3c 4ff4 b2bb 4cb1 953d 66cd 343d
000003c0: 0aee ddbd 7183 103e cd63 e4bd 83c7 2a3d
000003d0: f15f 3a3d f1ed 96bd c275 34bc 1abf e63b
000003e0: d947 adbb 370c 5fbd cdc6 8fbc 2bb4 9fbd
000003f0: 618f 523d 22b2 533d 1148 3e3d 9bdb 20bd

discrete_action_output_shape f4 [1, 2]
3.0 3.0
00000000: 0000 4040 0000 4040

network_body._body_endoder.seq_layers.0.bias f4 [256]
-0.02096068 0.001591336 0.028587138 8.704461e-05 -0.0077427328 0.032903716 0.018015612 0.0020095624
-0.005642646 0.015324303 -0.07645832 0.005634548 0.01393462 0.006953223 0.010332924 -0.0007325077
-0.021508796 -0.0029253904 0.014603967 0.003966811 0.0002732937 -0.0028283661 0.011576057 0.032962255
0.017570967 0.00013670267 0.0074401787 0.010921189 0.028228775 0.025303174 0.01147397 0.022811959
0.01907911 0.009238586 -0.019928215 0.012815836 0.011213267 -0.010116867 0.0071118544 -0.0013623738
0.0478514 -0.024355862 0.029617434 -0.0014522538 -0.021642307 0.000833271 -0.0033192732 0.0303051
-0.00914234 -0.0029178278 0.03830457 0.028256271 -0.005006963 -0.008775587 0.015918404 -0.008200828
0.006673471 0.005611772 0.031142777 0.02047591 0.010683371 0.01641243 0.026561689 -0.005399009
0.021974396 0.040241327 0.008344872 -0.032758888 0.02794394 0.03353692 0.024392655 0.02817507
0.024337342 0.038373314 0.0013236485 0.033205487 -0.0024853034 0.033121306 0.0076519954 -0.0035580972
-0.004512294 0.017294269 0.026331076 -0.00082990836 0.004219978 -0.0017173043 0.007339802 -0.012853635
0.015672736 0.03169813 0.00034699644 0.03796914 -0.0025094778 0.003931474 0.02313707 0.006903101
-0.012387773 0.016284809 0.014657289 0.03486703 0.016204378 0.0017248221 0.017482063 0.019748924
0.023614423 -0.007082306 0.008005368 0.009168397 -0.010190004 0.024767524 0.013232514 -0.044680987
0.010295224 -0.0116887335 -0.001780535 -0.013595459 0.038560268 0.010739972 0.02365214 -0.0122678755
0.015941583 -0.011965737 0.006265813 0.026153984 0.0040169978 -0.053272963 0.021323824 -0.07468402
-0.041341107 0.027633214 0.022054717 -0.05850065 0.005288212 0.03433341 -0.04206962 0.019622391
0.011512301 0.0046990993 0.019438133 0.03538273 0.017436842 -0.015524722 0.009705645 0.006397028
0.0033254384 0.0022949683 0.015244612 2.4353156e-05 0.043448005 0.013184902 0.010766119 0.032667276
0.004672075 0.025578422 0.0099689 0.004955161 0.0066988613 0.0059448485 0.006500572 0.03048435
0.014911438 -0.012372836 0.00900528 0.005520357 0.030696308 -0.020604644 0.0039729704 0.026244149
-0.032706242 0.0066431277 0.021660255 0.030407589 -0.00086983916 -0.012894353 0.0014050181 0.018709518
0.016512757 0.020365242 -0.005312175 -0.0076030227 0.008750819 0.02827157 -0.0029150401 0.0013112314
-0.012851728 -0.026692318 0.014630686 -0.013204705 0.015255606 -0.003630404 -0.02305666 0.027795391
0.016789842 0.023904886 0.020037433 0.0065729185 0.0009336114 0.009224025 0.026038788 0.008699773
0.024426727 0.03593366 -0.0038277952 -0.010546114 -0.00022981902 -0.00097095536 -0.0025993783 0.018403193
-0.017417088 -0.014766605 -0.008351609 0.014914239 -0.010305193 0.024555486 0.017403144 0.03145077
-0.009297152 -0.048200093 -0.03778276 0.016926985 0.021504516 -0.008451931 0.0053842086 -0.0010138477
0.02126499 -0.04187301 0.0025828017 0.009766251 -0.010607851 0.01130258 0.0047704363 -0.04598186
0.025674036 0.0061437525 0.029313067 0.0023685587 0.004021747 -0.021401888 0.0029100485 0.0014044865
0.008132425 -0.003658605 0.016045546 0.0029747365 0.039815575 -0.018244969 -0.0046310294 0.0014116451
0.027057169 -0.01694912 -0.0014355987 0.019517796 0.013134819 0.024802076 -0.03188805 0.019042302
00000000: bbb5 abbc 6094 d03a 932f ea3c b88b b638
00000010: c0b6 fdbb 0cc6 063d 7a95 933c ddb2 033b
00000020: f2e5 b8bb c912 7b3c 2e96 9cbd 04a2 b83b
00000030: 084e 643c ddd7 e33b 6d4b 293c c205 40ba
00000040: 3733 b0bc e8b7 3fbb 7a45 6f3c 06fc 813b
00000050: dc48 8f39 1c5c 39bb 81a9 3d3c 6e03 073d
00000060: fdf0 8f3c d857 0f39 becc f33b c9ee 323c
00000070: 0840 e73c 9a48 cf3c 51fd 3b3c 25e0 ba3c
00000080: cb4b 9c3c 705d 173c 7f40 a3bc 83f9 513c
00000090: dab7 373c 37c1 25bc 8f0a e93b ae91 b2ba
000000a0: d4ff 433d f285 c7bc 43a0 f23c 8d59 beba
000000b0: 354b b1bc df6f 5a3a 2a88 59bb 6742 f83c
000000c0: c1c9 15bc 0739 3fbb 41e5 1c3d b279 e73c
000000d0: 7311 a4bb 7bc7 0fbc 5067 823c c45c 06bc
000000e0: 22ad da3b f5e2 b73b 231f ff3c 18bd a73c
000000f0: 4e09 2f3c 5c73 863c e697 d93c 2cea b0bb
00000100: a603 b43c 17d4 243d eeb8 083c 2f2e 06bd
00000110: b1ea e43c 025e 093d 1bd3 c73c 68cf e63c
00000120: 1b5f c73c 562d 1d3d 467e ad3a 7a02 083d
00000130: 79e0 22bb 35aa 073d 97bd fa3b f72e 69bb
00000140: dedb 93bb b6ac 8d3c 45b4 d73c 358e 59ba
00000150: be47 8a3b 2c17 e1ba b982 f03b 0d98 52bc
00000160: 1c64 803c e6d5 013d 13ed b539 8785 1b3d
00000170: 0d76 24bb 98d3 803b f489 bd3c 6933 e23b
00000180: 16f6 4abc b867 853c 2025 703c bbd0 0e3d
00000190: 0bbf 843c 6d13 e23a 8b36 8f3c 7fc8 a13c
000001a0: 0973 c13c b012 e8bb f228 033c 0b37 163c
000001b0: f9f3 26bc 43e5 ca3c 30cd 583c 6903 37bd
000001c0: 4dad 283c 1a82 3fbc d760 e9ba 7dbf 5ebc
000001d0: 5ff1 1d3d b5f6 2f3c 22c2 c13c 33ff 48bc
000001e0: ec97 823c f00b 44bc 7351 cd3b e140 d63c
000001f0: 05a1 833b c034 5abd 4daf ae3c eff3 98bd
00000200: 4b55 29bd 0d5f e23c 18ac b43c 619e 6fbd
00000210: bd48 ad3b 31a1 0c3d 3251 2cbd 23bf a03c
00000220: 179e 3c3c e7fa 993b b83c 9f3c 7bed 103d
00000230: b5d7 8e3c 675b 7ebc 6d04 1f3c 299e d13b
00000240: 99ef 593b 2e67 163b 89c4 793c 014a cc37
00000250: 89f6 313d 7d05 583c 6064 303c 1fce 053d
00000260: 3518 993b d789 d13c 9954 233c e75e a23b
00000270: 1f82 db3b 01cd c23b c002 d53b 51ba f93c
00000280: 1b4f 743c 6fb7 4abc e28a 133c 1ce4 b43b
00000290: d376 fb3c 12cb a8bc b12f 823b f8fd d63c
000002a0: fbf6 05bd 98ae d93b d970 b13c 5619 f93c
000002b0: eb05 64ba d642 53bc 9628 b83a b444 993c
000002c0: c345 873c 02d5 a63c c111 aebb c722 f9bb
000002d0: 985f 0f3c c899 e73c 420a 3fbb a0dd ab3a
000002e0: 0e90 52bc d9a9 dabc 8bb5 6f3c 8c58 58bc
000002f0: a6f2 793c 12ec 6dbb 52e1 bcbc 29b3 e33c
00000300: da8a 893c 2ed4 c33c 8b25 a43c a361 d73b
00000310: 9abd 743a 5d20 173c 4c4f d53c 7e89 0e3c
00000320: 8f1a c83c 2c2f 133d bfdb 7abb 9cc9 2cbc
00000330: 93fb 70b9 b687 7eba 555a 2abb 4bc2 963c
00000340: 48ae 8ebc a1ef 71bc 30d5 08bc da5a 743c
00000350: 1dd7 28bc 9628 c93c 0a91 8e3c 86d2 003d
00000360: 1553 18bc 766d 45bd 18c2 1abd 76aa 8a3c
00000370: 3d2a b03c f879 0abc 046e b03b 15e3 84ba
00000380: eb33 ae3c 0983 2bbd 3944 293b a002 203c
00000390: 8dcc 2dbc 752e 393c 5251 9c3b 7a57 3cbd
000003a0: 5b52 d23c 8851 c93b f521 f03c d239 1b3b
000003b0: dcc8 833b 0353 afbc 83b6 3e3b bf16 b83a
000003c0: dd3d 053c 35c5 6fbb f371 833c ccf3 423b
000003d0: a815 233d 7976 95bc e4bf 97bb f306 b93a
000003e0: ffa6 dd3c e2d8 8abc b32a bcba c9e3 9f3c
000003f0: 6d33 573c b92d cb3c 0b9d 02bd 9afe 9b3c

network_body._body_endoder.seq_layers.0.weight f4 [256, 72]
-0.2183004 -0.26108202 0.07121276 -0.091212854 -0.08876313 0.046320353 0.12332754 -0.13241613
0.20390119 0.16114153 0.20744014 -0.12996745 -0.09791311 -0.12476229 -0.016685113 -0.092282295
0.2075226 0.14044233 0.081815116 -0.03724301 0.07115394 0.004583036 -0.030837156 -0.22369063
0.20046449 0.04571373 0.2989892 0.21492827 -0.12354042 0.040686086 0.23397902 0.080353454
-0.12778297 0.012494243 -0.15367882 0.0614276 -0.01520035 -0.0594443 0.028257154 -0.04573602
0.11619404 -0.09775581 -0.21348292 0.040520884 0.07470297 0.015935173 0.17761455 -0.1296993
0.08551837 0.0771454 0.018906446 -0.025748419 0.24115555 0.080249235 0.11401462 0.2350947
0.14463101 0.006547849 -0.016111434 -0.14764458 0.079555236 0.105774514 0.09991827 -0.09435662
-0.017102772 -0.13067697 0.0043307245 0.06454724 0.21743499 0.12633438 0.027908312 0.009182288
-0.16747884 0.00049488555 -0.11376899 0.062225197 -0.10487366 -0.20624971 -0.04108469 -0.06719107
0.027602734 0.16068776 -0.14850587 -0.07411535 0.046414807 0.1212386 -0.15481278 -0.22851595
-0.14820908 0.0990587 -0.030844301 -0.009828038 0.018030465 -0.06122597 0.028732799 -0.04633476
-0.11649107 0.015178008 0.033825703 0.12175456 -0.050975885 0.080309905 -0.078359686 -0.12278446
-0.16767186 -0.04101667 0.010137333 0.06813946 -0.16876207 0.028890083 0.051451694 0.24767733
0.054003716 0.22360127 0.31045413 -0.09224823 -0.12719297 -0.15746847 0.38390023 0.11335679
0.082670994 -0.021685049 0.10464253 0.13692695 -0.09138999 0.17226814 0.10313398 -0.018772863
0.11647369 -0.10322839 -0.007793112 0.09813048 0.16969845 -0.15294617 0.16331726 -0.088902384
0.164797 -0.10169118 0.039401323 0.09956126 0.12829097 0.13808593 0.12638414 0.04694599
-0.116421014 -0.10708309 0.026968485 0.13578661 -0.02139056 -0.06066236 0.16195661 0.027378023
-0.12358435 0.17284322 0.018982092 0.028961224 -0.15505344 -0.2283498 0.13173412 0.04509807
0.1479789 0.184188 0.06926917 0.0014449849 -0.09788229 0.15274128 -0.094322816 0.05337041
0.27965647 0.17542237 0.12655719 -0.09928372 0.116418056 -0.072029434 0.124121234 -0.07639091
0.1751158 -0.089637704 0.15831986 0.06928108 -0.20919152 -0.08542716 -0.14879647 -0.1258244
0.0936392 0.2035327 -0.118390426 -0.03170127 0.26421463 0.061675925 -0.056403264 -0.061802376
0.1808479 -0.1859142 0.0027644986 0.11948485 0.0012510609 -0.038748052 -0.16065538 -0.05392812
-0.37459093 0.019679489 -0.12035576 -0.10062463 -0.010884452 0.1226242 -0.07317044 -0.2825012
-0.13573602 -0.061441213 -0.037821703 0.14561345 0.23773496 -0.025265347 -0.06376309 -0.054993562
-0.07782446 -0.19733979 0.15877688 -0.13341206 0.10857868 -0.009444372 0.12571178 0.15132777
-0.048858274 -0.2758803 -0.043713134 0.24573746 0.050344404 0.048891667 -0.04627594 0.026443774
-0.062543735 -0.0032909117 0.23559323 0.058129795 0.11839276 0.069843754 0.05635281 -0.019127775
-0.044904362 0.23941863 0.18777806 0.06696602 0.09302594 -0.15838756 0.1402023 0.013365923
-0.1896507 -0.10552661 0.06508415 0.010523555 0.19204691 -0.11268889 0.075825155 0.06463712
00000000: 248a 5fbe 8bac 85be ffd7 913d cecd babd
00000010: 72c9 b5bd 69ba 3d3d 2693 fc3d 1898 07be
00000020: 79cb 503e 4902 253e 306b 543e 3016 05be
00000030: ab86 c8bd 5f83 ffbd 38af 88bc 80fe bcbd
00000040: ce80 543e 1dd0 0f3e af8e a73d 208c 18bd
00000050: 28b9 913d 4b2d 963b 349e fcbc 280f 65be
00000060: 9046 4d3e 523e 3b3d 1d15 993e 2816 5c3e
00000070: c202 fdbd 74a6 263d 3298 6f3e 5a90 a43d
00000080: 8ad9 02be a7b4 4c3c fb5d 1dbe 829b 7b3d
00000090: e40a 79bc de7b 73bd 8c7b e73c b155 3bbd
000000a0: 24f7 ed3d 3334 c8bd 449b 5abe 3af9 253d
000000b0: dffd 983d 7b8a 823c 97e0 353e e5cf 04be
000000c0: 4124 af3d 68fe 9d3d b1e1 9a3c 59ee d2bc
000000d0: 7bf1 763e b659 a43d 7f80 e93d aabc 703e
000000e0: 271a 143e 578f d63b 20fc 83bc 2430 17be
000000f0: dbed a23d 4fa0 d83d f3a1 cc3d 0b3e c1bd
00000100: 1d1b 8cbc 2fd0 05be c0e8 8d3b 5831 843d
00000110: 47a7 5e3e cd5d 013e f99f e43c 4f71 163c
00000120: 937f 2bbe 35bb 013a b7ff e8bd d9df 7e3d
00000130: 00c8 d6bd 2033 53be 6b48 28bd 799b 89bd
00000140: 211f e23c 558b 243e ec11 18be cac9 97bd
00000150: 741d 3e3d f14b f83d 3e87 1ebe 1600 6abe
00000160: 1fc4 17be 4adf ca3d 30ad fcbc c705 21bc
00000170: a0b4 933c 15c8 7abd 0c61 eb3c 84c9 3dbd
00000180: df92 eebd 2ead 783c d28c 0a3d 745a f93d
00000190: 17cc 50bd 8579 a43d 0b7b a0bd 6b76 fbbd
000001a0: 2cb2 2bbe 1901 28bd 0e17 263c b48c 8b3d
000001b0: f7cf 2cbe e5aa ec3c 03bf 523d 209f 7d3e
000001c0: 0033 5d3d bbf7 643e d8f3 9e3e a4ec bcbd
000001d0: e03e 02be 6a3f 21be 928e c43e 9b27 e83d
000001e0: 694f a93d d8a4 b1bc d34e d63d 9436 0c3e
000001f0: ad2a bbbd 0f67 303e e837 d33d 8cc9 99bc
00000200: c289 ee3d 6869 d3bd 5d5d ffbb a2f8 c83d
00000210: 6ec5 2d3e ec9d 1cbe a43c 273e 7412 b6bd
00000220: 8bc0 283e 7743 d0bd 4863 213d c6e6 cb3d
00000230: b55e 033e 6666 0d3e d86a 013e 704a 403d
00000240: 246e eebd 614e dbbd 03ed dc3c a50b 0b3e
00000250: 413b afbc 1879 78bd f4d7 253e e047 e03c
00000260: cb19 fdbd d0fd 303e 5580 9b3c 1740 ed3c
00000270: 54c6 1ebe 88d4 69be 4fe5 063e c1b8 383d
00000280: c887 173e c79b 3c3e ffdc 8d3d a665 bd3a
00000290: 8376 c8bd 3668 1c3e 522c c1bd ee9a 5a3d
000002a0: 222f 8f3e eca1 333e 3598 013e 4355 cbbd
000002b0: 976c ee3d 2b84 93bd 4633 fe3d d672 9cbd
000002c0: 8e51 333e f993 b7bd 9a1e 223e 3de3 8d3d
000002d0: 4d36 56be 6ff4 aebd 1a5e 18be 1dd8 00be
000002e0: e9c5 bf3d e06a 503e ae76 f2bd 31d9 01bd
000002f0: 2447 873e e59f 7c3d 1c07 67bd 7d24 7dbd
00000300: 3130 393e 4b60 3ebe 972c 353b 79b4 f43d
00000310: a3fa a33a 47b6 1ebd d882 24be bbe3 5cbd
00000320: 62ca bfbe e136 a13c 157d f6bd 4914 cebd
00000330: b354 32bc 6622 fb3d 62da 95bd ffa3 90be
00000340: 62fe 0abe c8a9 7bbd eeea 1abd b11b 153e
00000350: cb70 733e 46f9 cebc 3996 82bd ee40 61bd
00000360: 6e62 9fbd 7113 4abe 6896 223e 2c9d 08be
00000370: 805e de3d 91bc 1abc 97ba 003e abf5 1a3e
00000380: 9d1f 48bd 2f40 8dbe 8b0c 33bd 9aa2 7b3e
00000390: ef35 4e3d a142 483d d78b 3dbd 9da0 d83c
000003a0: ee16 80bd 56ac 57bb 5a3f 713e 8219 6e3d
000003b0: e777 f23d 3e0a 8f3d 34d2 663d dab1 9cbc
000003c0: a3ed 37bd 282a 753e e448 403e 7b25 893d
000003d0: 6284 be3d 5930 22be 3191 0f3e bffc 5a3c
000003e0: cb33 42be 561e d8bd d74a 853d fd6a 2c3c
000003f0: f2a7 443e 6fc9 e6bd 384a 9b3d 7760 843d

network_body._body_endoder.seq_layers.2.bias f4 [256]
0.0012219922 0.0110776685 0.017156294 -0.013616848 0.035827983 0.0009844922 -0.008306911 -0.0110059725
-0.01669023 -0.0029802693 0.017771514 0.0040639346 0.0020749709 0.013898977 0.01771882 0.009055104
0.02749841 0.011786007 0.009669511 -0.025387684 0.003888407 0.004265678 -0.007885093 0.016988894
0.03191574 0.015198445 0.004260079 0.015615405 0.014732146 0.008055772 0.013012191 0.006025838
0.020844208 0.026460048 0.009441964 0.01650197 -0.02038624 0.013832774 0.010251268 -0.00780197
-0.00039266105 -0.004955559 0.0041424795 0.01623644 0.0070637357 0.01420608 0.037240054 0.00076572166
0.020888088 -0.018009424 -0.023532126 0.008595626 0.005672308 0.019488595 0.0052073356 0.005914096
0.007864929 -0.0008038279 -0.0102828825 0.011877521 -0.0037483943 0.031231765 0.013355178 0.0092835855
0.0034204375 0.0015300165 -0.00246741 0.012143791 -0.0031985173 0.012102723 -0.015160054 0.0015884058
0.006325386 0.02503617 0.004736177 0.019247545 0.016627265 0.0046431203 0.00040555026 0.024519539
0.010848388 0.022205709 -0.014782529 0.0055010263 -0.0022207366 0.024399938 0.0005119326 -0.018993502
-0.025101222 0.008617933 -0.009992242 0.02965019 0.01770867 0.022393992 0.0009885777 0.016337594
0.010593129 0.026556104 0.027391868 0.025542375 0.014138072 0.0041303965 0.0038401964 0.0019650806
0.021325491 0.023479195 0.017025644 -0.0012108271 -0.019079752 -0.004494465 -0.005072763 -0.0076657874
-0.028628059 0.009515257 -0.0007194899 0.012093561 0.0011481714 0.0012783783 0.014700891 0.024734773
-0.020289559 0.018432606 -0.0072007636 0.0047744424 -0.008103088 0.020876514 -0.01802863 0.019096566
0.025903054 0.0065627024 -0.003549383 0.0021991087 0.025340458 0.01982709 0.01582815 0.0025828728
-0.0060468987 -0.0017008029 0.024322417 -0.0012174511 0.013158789 0.011831099 -0.008646433 0.002281334
0.024810871 -0.015153206 -0.0066662882 0.007981875 -0.021364493 0.018217437 0.0061368407 0.02401625
-0.012216028 -0.0043438757 0.014810635 -0.0011620598 0.004820507 -0.0027353463 -0.013440084 0.00028768645
-0.0071943398 0.031323254 0.0060464647 0.0010743145 0.04028118 0.0037302375 0.012703197 -0.015682647
0.01042091 0.0119472565 0.0005529367 0.004267379 0.007667239 -0.0023386457 0.011424231 -0.024603562
0.010422118 0.0030255415 0.0070157056 0.03125941 -0.033878654 0.014503295 0.00829465 -0.010249652
0.0075702844 0.01461488 -0.011854163 0.0020213544 0.0007182893 -0.016192196 0.029713089 0.007119036
0.007108905 0.00025887982 -0.018079014 -0.00055287656 -0.013530511 -0.04257568 0.019550089 0.00018482746
0.0030737303 0.004172869 5.6787507e-05 0.014156905 0.0036494609 0.013143309 -0.0016458234 -0.003205379
-0.012919435 0.0153383715 -0.015433203 0.0025702002 -0.016630318 -0.018045181 0.005319816 -0.0034221997
-0.0108974315 -0.0046911063 0.00097411993 -0.009930264 0.015378412 0.008193957 0.0060254536 0.015177247
-0.01709914 0.002667229 0.013205793 0.0039500324 0.0220682 0.00077640376 0.004736048 0.01118356
-0.0023331326 0.009394078 -0.0011479165 -0.00907735 -0.009066284 0.0025430552 0.0012844454 0.012918376
-0.0014246706 0.018635517 0.009638594 0.0078744665 -0.0077516604 -0.013053202 0.009363548 0.0071242014
0.015465303 0.010179429 0.01415744 0.032492314 0.010422699 0.0076253437 0.018170284 0.0036949038
00000000: 412b a03a 1c7f 353c 5b8b 8c3c 3319 5fbc
00000010: 5dc0 123d 140a 813a b619 08bc 6552 34bc
00000020: f3b9 88bc 9f50 43bb 9195 913c c12a 853b
00000030: 3cfc 073b 89b8 633c 0f27 913c dc5b 143c
00000040: 5844 e13c 191a 413c de6c 1e3c d5f9 cfbc
00000050: a5d4 7e3b 1ac7 8b3b 7a30 01bc 4b2c 8b3c
00000060: 14ba 023d e602 793c 2298 8b3b c1d7 7f3c
00000070: 195f 713c 5bfc 033c 1631 553c 6574 c53b
00000080: 79c1 aa3c bec2 d83c 78b2 1a3c 242f 873c
00000090: 0b01 a7bc dca2 623c eff4 273c aba7 ffbb
000000a0: 13de cdb9 3e62 a2bb a3bd 873b 4802 853c
000000b0: e976 e73b 9ec0 683c 0789 183d b6ba 483a
000000c0: 7f1d ab3c 8088 93bc 72c6 c0bc abd4 0c3c
000000d0: c5de b93b 8ca6 9f3c 4ca2 aa3b 08cb c13b
000000e0: e7db 003c fab7 52ba 8979 28bc ef99 423c
000000f0: 9fa7 75bb c2d9 ff3c adcf 5a3c 2e1a 183c
00000100: 6b29 603b d68a c83a 45b4 21bb c0f6 463c
00000110: 379e 51bb 804a 463c e061 78bc 0e32 d03a
00000120: 2f45 cf3b a718 cd3c ef31 9b3b 07ad 9d3c
00000130: e735 883c 5125 983b 09a0 d439 33dd c83c
00000140: 70bd 313c bfe8 b53c 6c32 72bc f441 b43b
00000150: c789 11bb 61e2 c73c 3733 063a 4398 9bbc
00000160: 14a1 cdbc 3b32 0d3c 80b6 23bc f5e4 f23c
00000170: c611 913c 9b73 b73c 2a93 813a 6bd6 853c
00000180: ce8e 2d3c 308c d93c e964 e03c 3e3e d13c
00000190: 5fa3 673c 4758 873b ceab 7b3b 95c8 003b
000001a0: ccb2 ae3c 7157 c03c 5d79 8b3c 9eb4 9eba
000001b0: 244d 9cbc 4e46 93bb 6c39 a6bb 4931 fbbb
000001c0: 6485 eabc e1e5 1b3c 269c 3cba 1224 463c
000001d0: 3d7e 963a 428f a73a 02dc 703c 94a0 ca3c
000001e0: 4a36 a6bc faff 963c 62f4 ebbb ed72 9c3b
000001f0: d0c2 04bc 3905 ab3c c7b0 93bc 6770 9c3c
00000200: a432 d43c f00b d73b c49c 68bb ec1e 103b
00000210: cb96 cf3c 6c6c a23c 09aa 813c 6a45 293b
00000220: 1025 c6bb 7aed deba ce3f c73c e192 9fba
00000230: f697 573c 3ad7 413c c5a9 0dbc 6f82 153b
00000240: 2b40 cb3c 2745 78bc e170 dabb 69c6 023c
00000250: 9704 afbc bc3c 953c 8d17 c93b babd c43c
00000260: bc25 48bc 1257 8ebb 4ea8 723c 4250 98ba
00000270: 58f5 9d3b 7f43 33bb cc33 5cbc 9fd4 9639
00000280: 7fbe ebbb d04c 003d 6c21 c63b 03d0 8c3a
00000290: e1fd 243d 0077 743b 1221 503c e578 80bc
000002a0: 77bc 2a3c 6dbe 433c f4f2 103a 5fd5 8b3b
000002b0: 763d fb3b f743 19bb b32c 3b3c 698d c9bc
000002c0: 88c1 2a3c 2a48 463b 01e4 e53b de09 003d
000002d0: 58c4 0abd 3a9f 6d3c 49e6 073c 28ee 27bc
000002e0: 2610 f83b 4073 6f3c f737 42bc b378 043b
000002f0: 944b 3c3a 7fa5 84bc dd68 f33c cd46 e93b
00000300: d1f1 e83b 43ba 8739 711a 94bc ebee 10ba
00000310: 14af 5dbc d663 2ebd 8227 a03c 3ece 4139
00000320: a370 493b 90bc 883b 1f2f 6e38 5df2 673c
00000330: cb2b 6f3b 0957 573c abb8 d7ba 5611 52bb
00000340: 0aac 53bc cb4d 7b3c 8cdb 7cbc ce70 283b
00000350: 4e3c 88bc 7dd3 93bc da51 ae3b fc46 60bb
00000360: 248b 32bc dab7 99bb 155c 7f3a 8cb2 22bc
00000370: bcf5 7b3c f23f 063c 2b71 c53b fda9 783c
00000380: 7f13 8cbc adcc 2e3b 1c5d 583c 466f 813b
00000390: 5fc8 b43c 9387 4b3a da30 9b3b 403b 373c
000003a0: 78e7 18bb 9ee9 193c b075 96ba 2ab9 14bc
000003b0: c08a 14bc 63a9 263b d65a a83a 99a7 533c
000003c0: 03bc baba 83a9 983c 32eb 1d3c e803 013c
000003d0: a401 febb 19dd 55bc 9169 193c 2272 e93b
000003e0: 2f62 7d3c 9fc7 263c 9bf4 673c a916 053d
000003f0: f8c3 2a3c 05de f93b d9d9 943c 3326 723b

network_body._body_endoder.seq_layers.2.weight f4 [256, 256]
-0.012922811 0.021951139 -0.03771261 -0.01685863 0.038400494 0.068857834 0.12706351 0.15020137
-0.11570974 0.042506184 -0.06903263 0.10631825 0.027057597 0.01698895 0.14028841 0.029022196
-0.09934661 0.04850666 -0.039813902 -0.001444953 -0.14319356 0.031311322 0.16586106 -0.120695785
0.02461072 -0.052467473 0.19757223 -0.059586633 -0.07604208 0.10056302 -0.18892133 -0.014574913
0.021199903 0.15237044 -0.08713218 -0.0286692 0.010735838 0.04749171 -0.042092636 -0.052146807
0.05269378 0.06411477 0.13929737 -0.15065491 -0.0106064305 -0.08554954 -0.17345986 -0.17778787
-0.22374366 -0.030687803 0.064727545 -0.022620473 -0.18360911 0.060478274 -0.043257654 0.04122907
0.0051160315 0.0541029 -0.10403958 -0.110669196 -0.08806231 0.080570064 0.083993606 -0.06756515
0.03336085 0.12494343 -0.03767437 0.009808516 -0.0039368835 0.0007873687 -0.04370852 0.10045559
-0.022583717 0.099187665 0.046436377 0.09754816 -0.014641097 -0.008197824 0.059294265 -0.05596859
-0.079420716 -0.08051787 0.13501541 0.17900349 0.07651874 -0.14547086 -0.14789017 -0.24048948
-0.018667812 0.14892808 0.03632125 -0.045995772 -0.20511502 0.016935151 0.06442895 -0.10460168
0.07187465 -0.066582 0.06628684 -0.002571164 -0.20928404 -0.13126868 -0.13090102 -0.14547455
0.034021266 -0.075296074 -0.032784503 0.16970699 -0.01589746 -0.041887198 0.017673593 0.01888409
0.08351311 0.021482013 -0.02536092 -0.04809972 0.04454466 -0.17162262 0.21990165 -0.055669412
-0.17241403 -0.0713245 0.25379106 -0.19632696 0.09796828 -0.04018134 -0.18231855 0.116833456
0.15030414 8.8914465e-05 0.12469595 0.054229397 -0.07443786 0.047257155 -0.0671043 0.056252554
-0.050615452 -0.040271707 -0.061472327 0.20397313 -0.12957582 -0.026585715 -0.0517076 -0.060273763
0.052472986 0.15735602 -0.0064481534 0.025590815 -0.1380847 -0.13549985 -0.061295453 -8.7485765e-05
0.013774789 -0.11890431 0.11721893 -0.039421085 0.14353384 -0.02276809 0.002021233 -0.11511344
-0.12511858 -0.038003866 -0.025120916 0.025357494 0.24365939 0.05941517 0.0022038685 -0.03130934
-0.08248244 0.10021185 -0.01763869 0.0834834 -0.02154107 -0.033062138 0.044475377 0.071880914
0.008847731 -0.1872189 -0.21919459 0.051260374 -0.052440803 0.08320253 0.06346539 -0.044928342
-0.040428843 0.017094264 -0.24211305 -0.14549607 -0.0695862 0.054566428 -0.18966445 0.061384063
-0.08776547 0.04807619 -0.091517374 0.023881143 -0.008553216 0.037645645 -0.023793604 -0.074334614
0.08642926 -0.042949837 0.05258553 0.025323834 -0.070708565 0.105443195 0.06796692 0.0077737174
-0.011956545 0.033821274 -0.0848152 -0.02410862 0.008593699 -0.15169188 0.052202787 0.084012985
0.07282243 0.040393587 -0.0057358616 -0.036473785 -0.20600829 -0.08743886 0.070476994 0.094511054
-0.037009098 0.024734046 -0.22521974 0.072968096 0.06930653 0.22411932 -0.052512657 -0.004268719
-0.03737269 -0.018516304 0.06503773 0.07395126 -0.101993 0.14012542 -0.066681065 -0.13718972
-0.08998239 -0.052360173 -0.051664945 0.030852605 0.021933902 0.014929117 0.22457474 0.069401585
0.072118945 0.071524225 0.019361038 -0.104646735 0.08983087 -0.15341443 -0.014156624 -0.12865323
00000000: 33ba 53bc e0d2 b33c 8a78 1abd 1c1b 8abc
00000010: d649 1d3d 5605 8d3d f01c 023e 63ce 193e
00000020: 3af9 ecbd f71a 2e3d fb60 8dbd 62bd d93d
00000030: e5a7 dd3c 692c 8b3c c4a7 0f3e f5bf ed3c
00000040: 3c76 cbbd ebae 463d e713 23bd 9464 bdba
00000050: 55a1 12be 4d40 003d 7bd7 293e 5a2f f7bd
00000060: 6c9c c93c 22e8 56bd 6050 4a3e 1d11 74bd
00000070: f3bb 9bbd fcf3 cd3d 9874 41be 9ecb 6ebc
00000080: 6bab ad3c ff06 1c3e 5b72 b2bd acdb eabc
00000090: 5ee5 2f3c ab86 423d 5469 2cbd e497 55bd
000000a0: 6fd5 573d 9b4e 833d f8a3 0e3e 4845 1abe
000000b0: 98c6 2dbc 9934 afbd 769f 31be 060e 36be
000000c0: 0f1d 65be fd64 fbbc e08f 843d 924e b9bc
000000d0: 0704 3cbe 11b8 773d f02e 31bd d0df 283d
000000e0: 62a4 a73b 019b 5d3d b412 d5bd 88a6 e2bd
000000f0: 035a b4bd eb01 a53d d704 ac3d 995f 8abd
00000100: 63a5 083d 57e2 ff3d 7150 1abd e6b3 203c
00000110: f900 81bb 6b67 4e3a b407 33bd a9bb cd3d
00000120: 7d01 b9bc e722 cb3d 1234 3e3d 54c7 c73d
00000130: 36e1 6fbc 2a50 06bc 8bde 723d 523f 65bd
00000140: 54a7 a2bd 8ee6 a4bd 7b41 0a3e b14c 373e
00000150: dbb5 9c3d 50f6 14be 8570 17be e042 76be
00000160: 3ded 98bc 9a80 183e 97c5 143d 1066 3cbd
00000170: ac09 52be 96bb 8a3c 53f3 833d 6839 d6bd
00000180: 0433 933d 255c 88bd 65c1 873d f980 28bb
00000190: 8e4e 56be 4c6b 06be eb0a 06be 48f7 14be
000001a0: e259 0b3d d434 9abd 0b49 06bd abc7 2d3e
000001b0: 643b 82bc e991 2bbd 36c8 903c cfb2 9a3c
000001c0: ec08 ab3d 0cfb af3c b4c1 cfbc 3604 45bd
000001d0: 7674 363d d7bd 2fbe e62d 613e 9c05 64bd
000001e0: 4e8d 30be 9412 92bd e7f0 813e ef09 49be
000001f0: 98a3 c83d 3095 24bd b7b1 3abe 6146 ef3d
00000200: 54e9 193e 9777 ba38 9760 ff3d a51f 5e3d
00000210: e072 98bd b890 413d fb6d 89bd 1469 663d
00000220: 2652 4fbd f2f3 24bd 68ca 7bbd 55de 503e
00000230: 86af 04be 49ca d9bc 59cb 53bd 9fe1 76bd
00000240: eaed 563d f021 213e 084b d3bb d4a3 d13c
00000250: 1366 0dbe 79c0 0abe f110 7bbd 9078 b7b8
00000260: a7af 613c 1a84 f3bd 7a10 f03d 0178 21bd
00000270: 89fa 123e 2584 babc aa76 043b 98c0 ebbd
00000280: 161f 00be f1a9 1bbd 61ca cdbc 85ba cf3c
00000290: d981 793e 525d 733d c76e 103b 393e 00bd
000002a0: 8eec a8bd df3b cd3d 047f 90bc 58f9 aa3d
000002b0: e676 b0bc 2a6c 07bd d02b 363d 4d36 933d
000002c0: 13f6 103c 50b6 3fbe 8c74 60be 66f6 513d
000002d0: 2bcc 56bd 1766 aa3d 24fa 813d c806 38bd
000002e0: b798 25bd 4509 8c3c 7cec 77be ecfc 14be
000002f0: 3683 8ebd 0c81 5f3d 6637 42be db6d 7b3d
00000300: 62be b3bd 8aeb 443d 766d bbbd 63a2 c33c
00000310: ca22 0cbc 5232 1a3d ceea c2bc bf3c 98bd
00000320: d301 b13d 2bec 2fbd ed63 573d ee73 cf3c
00000330: a7cf 90bd 9af2 d73d 3e32 8b3d abba fe3b
00000340: 62e5 43bc 2d88 0a3d 97b3 adbd 717f c5bc
00000350: 96cc 0c3c 1e55 1bbe 97d2 553d 000f ac3d
00000360: ed23 953d bf73 253d e5f3 bbbb 8965 15bd
00000370: d6f3 52be 2513 b3bd 3e56 903d 038f c13d
00000380: da96 17bd 0e9f ca3c 01a0 66be 4c70 953d
00000390: 95f0 8d3d 897f 653e 8317 57bd 9ce0 8bbb
000003a0: 1b14 19bd 81af 97bc 8032 853d c273 973d
000003b0: b5e1 d0bd 0a7d 0f3e 1590 88bd 767b 0cbe
000003c0: b048 b8bd 9f77 56bd 9f9e 53bd 9abe fc3c
000003d0: baae b33c 4199 743c ecf6 653e 6b22 8e3d
000003e0: 19b3 933d 4b7b 923d 0a9b 9e3c 0751 d6bd
000003f0: 3ff9 b73d ac18 1dbe 2ff1 67bc acbd 03be
